# Model parameters
nc: 6  # number of classes
depth_multiple: 1.00  # Depth scaling factor
width_multiple: 1.00  # Width scaling factor

# Backbone
backbone:
  [
   [-1, 1, Conv, [64, 3, 2]],   # 0-P1/2
   [-1, 1, Conv, [128, 3, 2]],  # 1-P2/4
   [-1, 3, C2f, [128, True]],
   [-1, 1, Conv, [256, 3, 2]],  # 3-P3/8
   [-1, 6, C2f, [256, True]],
   [-1, 1, Conv, [512, 3, 2]],  # 5-P4/16
   [-1, 6, C2f, [512, True]],
   [-1, 1, Conv, [1024, 3, 2]], # 7-P5/32
   [-1, 3, C2f, [1024, True]],  # 8

   # Two Stream Part
   [-4, 1, Conv, [64, 3, 2]],   # 9-P1/2
   [-1, 1, Conv, [128, 3, 2]],  # 10-P2/4
   [-1, 3, C2f, [128, True]],
   [-1, 1, Conv, [256, 3, 2]],  # 12-P3/8
   [-1, 6, C2f, [256, True]],
   [-1, 1, Conv, [512, 3, 2]],  # 14-P4/16
   [-1, 6, C2f, [512, True]],
   [-1, 1, Conv, [1024, 3, 2]], # 16-P5/32
   [-1, 3, C2f, [1024, True]],  # 17

   # Fusion layers
   [[4,12], 1, RgbIrSTN, []], # 18
   [[-1,12,9], 1, ACF, [1]],  # 19 Two-stream fuse
   [-1, 1, Conv, [256, 3, 1]], # 20
   [[6,14], 1, RgbIrSTN, []], # 21
   [[-1,14,10], 1, ACF, [1]],  # 22 Two-stream fuse
   [-1, 1, Conv, [512, 3, 1]], # 23
   [[8,16], 1, RgbIrSTN, []], # 24
   [[-1,16,11], 1, ACF, [1]],  # 25 Two-stream fuse
   [-1, 1, Conv, [1024, 3, 1]], # 26
  ]

# Head
head:
  [[-1, 1, Conv, [512, 1, 1]], # 27
   [-1, 1, nn.Upsample, [None, 2, 'nearest']], # 28
   [[-1,23], 1, Concat, [1]], # 29 cat backbone P4
   [-1, 3, C2f, [512, False]], # 30

   [-1, 1, Conv, [256, 1, 1]], # 31
   [-1, 1, nn.Upsample, [None, 2, 'nearest']], # 32
   [[-1,20], 1, Concat, [1]], # 33 cat backbone P3
   [-1, 3, C2f, [256, False]], # 34 (P3/8-small)

   [-1, 1, Conv, [256, 3, 2]], # 35
   [[-1,30], 1, Concat, [1]], # 36 cat head P4
   [-1, 3, C2f, [512, False]], # 37 (P4/16-medium)

   [-1, 1, Conv, [512, 3, 2]], # 38
   [[-1,27], 1, Concat, [1]], # 39 cat head P5
   [-1, 3, C2f, [1024, False]], # 40 (P5/32-large)

   [[34, 37, 40], 1, Detect, [nc]], # 41 Detect(P3, P4, P5)
  ]
